…
on_minor":0,"model_id":"9b699a8b27cc4353acaecc08a2204032"}},"metadata":{}}],"execution_count":7},{"cell_type":"code","source":"context_encoder","metadata":{"trusted":true,"execution":{"iopub.status.busy":"2024-12-17T03:19:56.160351Z","iopub.execute_input":"2024-12-17T03:19:56.160674Z","iopub.status.idle":"2024-12-17T03:19:56.167507Z","shell.execute_reply.started":"2024-12-17T03:19:56.160646Z","shell.execute_reply":"2024-12-17T03:19:56.166616Z"}},"outputs":[{"execution_count":8,"output_type":"execute_result","data":{"text/plain":"BertModel(\n  (embeddings): BertEmbeddings(\n    (word_embeddings): Embedding(30522, 768, padding_idx=0)\n    (position_embeddings): Embedding(512, 768)\n    (token_type_embeddings): Embedding(2, 768)\n    (LayerNorm): LayerNorm((768,), eps=1e-12, elementwise_affine=True)\n    (dropout): Dropout(p=0.1, inplace=False)\n  )\n  (encoder): BertEncoder(\n    (layer): ModuleList(\n      (0-11): 12 x BertLayer(\n        (attention): BertAttention(\n          (self): BertSdpaSelfAttention(\n            (query): Linear(in_features=768, out_features=768, bias=True)\n            (key): Linear(in_features=768, out_features=768, bias=True)\n            (value): Linear(in_features=768, out_features=768, bias=True)\n            (dropout): Dropout(p=0.1, inplace=False)\n          )\n          (output): BertSelfOutput(\n            (dense): Linear(in_features=768, out_features=768, bias=True)\n            (LayerNorm): LayerNorm((768,), eps=1e-12, elementwise_affine=True)\n            (dropout): Dropout(p=0.1, inplace=False)\n          )\n        )\n        (intermediate): BertIntermediate(\n          (dense): Linear(in_features=768, out_features=3072, bias=True)\n          (intermediate_act_fn): GELUActivation()\n        )\n        (output): BertOutput(\n          (dense): Linear(in_features=3072, out_features=768, bias=True)\n          (LayerNorm): LayerNorm((768,), eps=1e-12, elementwise_affine=True)\n          (dropout): Dropout(p=0.1, inplace=False)\n        )\n      )\n    )\n  )\n  (pooler): BertPooler(\n    (dense): Linear(in_features=768, out_features=768, bias=True)\n    (activation): Tanh()\n  )\n)"},"metadata":{}}],"execution_count":8},{"cell_type":"code","source":"decoder = GPT2Model.from_pretrained(\"gpt2\")","metadata":{"_uuid":"f1b6665f-5aaf-419d-8cb6-cc07900f9ec8","_cell_guid":"70a7e943-ee33-4ca5-8a75-8cf1a6c20387","trusted":true,"collapsed":false,"jupyter":{"outputs_hidden":false},"execution":{"iopub.statu
…
nd.jupyter.widget-view+json":{"version_major":2,"version_minor":0,"model_id":"4860bfdf5bc24e829edc7cb92118de65"}},"metadata":{}}],"execution_count":9},{"cell_type":"code","source":"decoder","metadata":{"trusted":true,"execution":{"iopub.status.busy":"2024-12-17T03:20:23.688655Z","iopub.execute_input":"2024-12-17T03:20:23.688926Z","iopub.status.idle":"2024-12-17T03:20:23.695122Z","shell.execute_reply.started":"2024-12-17T03:20:23.688900Z","shell.execute_reply":"2024-12-17T03:20:23.694216Z"}},"outputs":[{"execution_count":10,"output_type":"execute_result","data":{"text/plain":"GPT2Model(\n  (wte): Embedding(50257, 768)\n  (wpe): Embedding(1024, 768)\n  (drop): Dropout(p=0.1, inplace=False)\n  (h): ModuleList(\n    (0-11): 12 x GPT2Block(\n      (ln_1): LayerNorm((768,), eps=1e-05, elementwise_affine=True)\n      (attn): GPT2SdpaAttention(\n        (c_attn): Conv1D(nf=2304, nx=768)\n        (c_proj): Conv1D(nf=768, nx=768)\n        (attn_dropout): Dropout(p=0.1, inplace=False)\n        (resid_dropout): Dropout(p=0.1, inplace=False)\n      )\n      (ln_2): LayerNorm((768,), eps=1e-05, elementwise_affine=True)\n      (mlp): GPT2MLP(\n        (c_fc): Conv1D(nf=3072, nx=768)\n        (c_proj): Conv1D(nf=768, nx=3072)\n        (act): NewGELUActivation()\n        (dropout): Dropout(p=0.1, inplace=False)\n      )\n    )\n  )\n  (ln_f): LayerNorm((768,), eps=1e-05, elementwise_affine=True)\n)"},"metadata":{}}],"execution_count":10},{"cell_type":"code","source":"decoder.resize_token_embeddings(decoder.config.vocab_size)","metadata":{"_uuid":"f5419cd6-38c2-4241-a363-61cbbef96ac2","_cell_guid":"da3cb94a-d8dc-4fca-a856-ec8e07d977ce","trusted":true,"collapsed":false,"jupyter":{"outputs_hidden":false},"execution":{"iopub.status.busy":"2024-12-17
…
":"2024-12-17T03:21:26.501334Z"}},"outputs":[],"execution_count":21},{"cell_type":"code","source":"model","metadata":{"trusted":true,"execution":{"iopub.status.busy":"2024-12-17T03:21:28.750644Z","iopub.execute_input":"2024-12-17T03:21:28.750929Z","iopub.status.idle":"2024-12-17T03:21:28.757993Z","shell.execute_reply.started":"2024-12-17T03:21:28.750904Z","shell.execute_reply":"2024-12-17T03:21:28.757152Z"}},"outputs":[{"execution_count":22,"output_type":"execute_result","data":{"text/plain":"PAA_Model(\n  (context_encoder): BertModel(\n    (embeddings): BertEmbeddings(\n      (word_embeddings): Embedding(30522, 768, padding_idx=0)\n      (position_embeddings): Embedding(512, 768)\n      (token_type_embeddings): Embedding(2, 768)\n      (LayerNorm): LayerNorm((768,), eps=1e-12, elementwise_affine=True)\n      (dropout): Dropout(p=0.1, inplace=False)\n    )\n    (encoder): BertEncoder(\n      (layer): ModuleList(\n        (0-11): 12 x BertLayer(\n          (attention): BertAttention(\n            (self): BertSdpaSelfAttention(\n              (query): Linear(in_features=768, out_features=768, bias=True)\n              (key): Linear(in_features=768, out_features=768, bias=True)\n              (value): Linear(in_features=768, out_features=768, bias=True)\n              (dropout): Dropout(p=0.1, inplace=False)\n            )\n            (output): BertSelfOutput(\n              (dense): Linear(in_features=768, out_features=768, bias=True)\n              (LayerNorm): LayerNorm((768,), eps=1e-12, elementwise_affine=True)\n              (dropout): Dropout(p=0.1, inplace=False)\n            )\n          )\n          (intermediate): BertIntermediate(\n            (dense): Linear(in_features=768, out_features=3072, bias=True)\n            (intermediate_act_fn): GELUActivation()\n          )\n          (output): BertOutput(\n            (dense): Linear(in_features=3072, out_features=768, bias=True)\n            (LayerNorm): LayerNorm((768,), eps=1e-12, elementwise_affine=True)\n            (dropout): Dropout(p=0.1, inplace=False)\n          )\n        )\n      )\n    )\n    (pooler): BertPooler(\n      (dense): Linear(in_features=768, out_features=768, bias=True)\n      (activation): Tanh()\n    )\n  )\n  (decoder): GPT2Model(\n    (wte): Embedding(50257, 768)\n    (wpe): Embedding(1024, 768)\n    (drop): Dropout(p=0.1, inplace=False)\n    (h): ModuleList(\n      (0-11): 12 x GPT2Block(\n        (ln_1): LayerNorm((768,), eps=1e-05, elementwise_affine=True)\n        (attn): GPT2SdpaAttention(\n          (c_attn): Conv1D(nf=2304, nx=768)\n          (c_proj): Conv1D(nf=768, nx=768)\n          (attn_dropout): Dropout(p=0.1, inplace=False)\n          (resid_dropout): Dropout(p=0.1, inplace=False)\n        )\n        (ln_2): LayerNorm((768,), eps=1e-05, elementwise_affine=True)\n        (mlp): GPT2MLP(\n          (c_fc): Conv1D(nf=3072, nx=768)\n          (c_proj): Conv1D(nf=768, nx=3072)\n          (act): NewGELUActivation()\n          (dropout): Dropout(p=0.1, inplace=False)\n        )\n      )\n    )\n    (ln_f): LayerNorm((768,), eps=1e-05, elementwise_affine=True)\n  )\n  (profile_projection): Linear(in_features=16, out_features=768, bias=True)\n  (paa_layer): PAALayer(\n    (cross_attn): MultiheadAttention(\n      (out_proj): NonDynamicallyQuantizableLinear(in_features=768, out_features=768, bias=True)\n    )\n    (sigmoid): Sigmoid()\n    (linear): Linear(in_features=1536, out_features=768, bias=True)\n  )\n  (loss_fn): CrossEntropyLoss()\n)"},"metadata":{}}],"execution_count":22},{"cell_type":"code","source":"optimizer = Adam(model.parameters(), lr=5e-5)","metadata":{"_uuid":"dda16650-0ad9-419e-9079-3655382ce3df","_cell_guid":"e9030db2-ec81-4254-8c73-2dc9a1b05047","trusted":true,"collapsed":false,"jupyter":{"outputs_hidden":false},"execution":{"io
…
